…
21-06-03 05:12:30, INFO: weights_d: 
21-06-03 05:12:30, INFO: weights_g: 
21-06-03 05:12:30, INFO: z_dim: 100
21-06-03 05:12:30, INFO: --------------------------------
21-06-03 05:12:30, INFO: exp_folder: experiments/baseline/baseline_hgan/baselinehgan_losshgan_5heads_augmentation0_sagan
21-06-03 05:12:30, INFO: images_folder: experiments/baseline/baseline_hgan/baselinehgan_losshgan_5heads_augmentation0_sagan/images
21-06-03 05:12:30, INFO: models_folder: experiments/baseline/baseline_hgan/baselinehgan_losshgan_5heads_augmentation0_sagan/models
21-06-03 05:12:30, INFO: Generator(
  (l1): Sequential(
    (0): ConvTranspose2d(
      (conv_transpose2d): ConvTranspose2d(100, 128, kernel_size=(4, 4), stride=(1, 1))
    )
    (1): BatchNorm2d(128, eps=1e-05, momentum=0.1, affine=True, track_running_stats=True)
    (2): ReLU()
  )
  (l2): Sequential(
    (0): ConvTranspose2d(
      (conv_transpose2d): ConvTranspose2d(128, 64, kernel_size=(4, 4), stride=(2, 2), padding=(1, 1))
    )
    (1): BatchNorm2d(64, eps=1e-05, momentum=0.1, affine=True, track_running_stats=True)
    (2): ReLU()
  )
  (l3): Sequential(
    (0): ConvTranspose2d(
      (conv_transpose2d): ConvTranspose2d(64, 32, kernel_size=(3, 3), stride=(2, 2), padding=(1, 1))
    )
    (1): BatchNorm2d(32, eps=1e-05, momentum=0.1, affine=True, track_running_stats=True)
    (2): ReLU()
  )
  (l4): Sequential(
    (0): ConvTranspose2d(
      (conv_transpose2d): ConvTranspose2d(32, 16, kernel_size=(2, 2), stride=(2, 2), padding=(1, 1))
    )
    (1): BatchNorm2d(16, eps=1e-05, momentum=0.1, affine=True, track_running_stats=True)
    (2): ReLU()
  )
  (last): Sequential(
    (0): Conv2d(16, 1, kernel_size=(3, 3), stride=(1, 1), padding=(1, 1))
    (1): Tanh()
  )
)
21-06-03 05:12:30, INFO: MDiscriminators(
  (head_0): Discriminator(
    (l1): Sequential(
      (0): Conv2d(
        (conv2d): SpectralNorm(
          (module): Conv2d(1, 16, kernel_size=(4, 4), stride=(2, 2), padding=(1, 1))
        )
      )
      (1): LeakyReLU(negative_slope=0.1)
    )
    (l2): Sequential(
      (0): Conv2d(
        (conv2d): SpectralNorm(
          (module): Conv2d(16, 32, kernel_size=(4, 4), stride=(2, 2), padding=(1, 1))
        )
      )
      (1): LeakyReLU(negative_slope=0.1)
    )
    (l3): Sequential(
      (0): Conv2d(
        (conv2d): SpectralNorm(
          (module): Conv2d(32, 64, kernel_size=(4, 4), stride=(2, 2), padding=(1, 1))
        )
      )
      (1): LeakyReLU(negative_slope=0.1)
    )
    (l4): Sequential(
      (0): Conv2d(
        (conv2d): SpectralNorm(
          (module): Conv2d(64, 128, kernel_size=(4, 4), stride=(2, 2), padding=(1, 1))
        )
      )
      (1): LeakyReLU(negative_slope=0.1)
    )
    (last): Sequential(
      (0): Conv2d(128, 1, kernel_size=(1, 1), stride=(1, 1))
      (1): Sigmoid()
    )
  )
  (head_1): Discriminator(
    (l1): Sequential(
      (0): Conv2d(
        (conv2d): SpectralNorm(
          (module): Conv2d(1, 16, kernel_size=(4, 4), stride=(2, 2), padding=(1, 1))
        )
      )
      (1): LeakyReLU(negative_slope=0.1)
    )
    (l2): Sequential(
      (0): Conv2d(
        (conv2d): SpectralNorm(
          (module): Conv2d(16, 32, kernel_size=(4, 4), stride=(2, 2), padding=(1, 1))
        )
      )
      (1): LeakyReLU(negative_slope=0.1)
    )
    (l3): Sequential(
      (0): Conv2d(
        (conv2d): SpectralNorm(
          (module): Conv2d(32, 64, kernel_size=(4, 4), stride=(2, 2), padding=(1, 1))
        )
      )
      (1): LeakyReLU(negative_slope=0.1)
    )
    (l4): Sequential(
      (0): Conv2d(
        (conv2d): SpectralNorm(
          (module): Conv2d(64, 128, kernel_size=(4, 4), stride=(2, 2), padding=(1, 1))
        )
      )
      (1): LeakyReLU(negative_slope=0.1)
    )
    (last): Sequential(
      (0): Conv2d(128, 1, kernel_size=(1, 1), stride=(1, 1))
      (1): Sigmoid()
    )
  )
  (head_2): Discriminator(
    (l1): Sequential(
      (0): Conv2d(
        (conv2d): SpectralNorm(
          (module): Conv2d(1, 16, kernel_size=(4, 4), stride=(2, 2), padding=(1, 1))
        )
      )
      (1): LeakyReLU(negative_slope=0.1)
    )
    (l2): Sequential(
      (0): Conv2d(
        (conv2d): SpectralNorm(
          (module): Conv2d(16, 32, kernel_size=(4, 4), stride=(2, 2), padding=(1, 1))
        )
      )
      (1): LeakyReLU(negative_slope=0.1)
    )
    (l3): Sequential(
      (0): Conv2d(
        (conv2d): SpectralNorm(
          (module): Conv2d(32, 64, kernel_size=(4, 4), stride=(2, 2), padding=(1, 1))
        )
      )
      (1): LeakyReLU(negative_slope=0.1)
    )
    (l4): Sequential(
      (0): Conv2d(
        (conv2d): SpectralNorm(
          (module): Conv2d(64, 128, kernel_size=(4, 4), stride=(2, 2), padding=(1, 1))
        )
      )
      (1): LeakyReLU(negative_slope=0.1)
    )
    (last): Sequential(
      (0): Conv2d(128, 1, kernel_size=(1, 1), stride=(1, 1))
      (1): Sigmoid()
    )
  )
  (head_3): Discriminator(
    (l1): Sequential(
      (0): Conv2d(
        (conv2d): SpectralNorm(
          (module): Conv2d(1, 16, kernel_size=(4, 4), stride=(2, 2), padding=(1, 1))
        )
      )
      (1): LeakyReLU(negative_slope=0.1)
    )
    (l2): Sequential(
      (0): Conv2d(
        (conv2d): SpectralNorm(
          (module): Conv2d(16, 32, kernel_size=(4, 4), stride=(2, 2), padding=(1, 1))
        )
      )
      (1): LeakyReLU(negative_slope=0.1)
    )
    (l3): Sequential(
      (0): Conv2d(
        (conv2d): SpectralNorm(
          (module): Conv2d(32, 64, kernel_size=(4, 4), stride=(2, 2), padding=(1, 1))
        )
      )
      (1): LeakyReLU(negative_slope=0.1)
    )
    (l4): Sequential(
      (0): Conv2d(
        (conv2d): SpectralNorm(
          (module): Conv2d(64, 128, kernel_size=(4, 4), stride=(2, 2), padding=(1, 1))
        )
      )
      (1): LeakyReLU(negative_slope=0.1)
    )
    (last): Sequential(
      (0): Conv2d(128, 1, kernel_size=(1, 1), stride=(1, 1))
      (1): Sigmoid()
    )
  )
  (head_4): Discriminator(
    (l1): Sequential(
      (0): Conv2d(
        (conv2d): SpectralNorm(
          (module): Conv2d(1, 16, kernel_size=(4, 4), stride=(2, 2), padding=(1, 1))
        )
      )
      (1): LeakyReLU(negative_slope=0.1)
    )
    (l2): Sequential(
      (0): Conv2d(
        (conv2d): SpectralNorm(
          (module): Conv2d(16, 32, kernel_size=(4, 4), stride=(2, 2), padding=(1, 1))
        )
      )
      (1): LeakyReLU(negative_slope=0.1)
    )
    (l3): Sequential(
      (0): Conv2d(
        (conv2d): SpectralNorm(
          (module): Conv2d(32, 64, kernel_size=(4, 4), stride=(2, 2), padding=(1, 1))
        )
      )
      (1): LeakyReLU(negative_slope=0.1)
    )
    (l4): Sequential(
      (0): Conv2d(
        (conv2d): SpectralNorm(
          (module): Conv2d(64, 128, kernel_size=(4, 4), stride=(2, 2), padding=(1, 1))
        )
      )
      (1): LeakyReLU(negative_slope=0.1)
    )
    (last): Sequential(
      (0): Conv2d(128, 1, kernel_size=(1, 1), stride=(1, 1))
      (1): Sigmoid()
    )
  )
)
21-06-03 05:12:30, INFO: start at epoch: 0
21-06-03 05:12:41, INFO: data at: data/mnist
21-06-03 05:12:44, INFO: epoch: 0
21-06-03 05:15:29, INFO: saved g at: experiments/baseline/baseline_hgan/baselinehgan_losshgan_5heads_augmentation0_sagan/models/generator_0.pth
21-06-03 05:15:29, INFO: saved d at: experiments/baseline/baseline_hgan/baselinehgan_losshgan_5heads_augmentation0_sagan/models/discriminator_0.pth
…
