…
data_path: data/mnist
diff_data_for_heads: 1
dist: gauss
exp_name: lsgan_10_heads_1G_10heads_diff_data_for_heads
gaussian_noise_std: -1
img_size: 28
interval: 2
loss_name: lsgan
lr: 0.0002
n_cpu: 8
n_epochs: 200
n_heads: 10
spec_d: 1
spec_g: 0
translation_shift: -1
weights_d: 
weights_g: 
z_dim: 100
--------------------------------
exp_folder: experiments/lsgan_10_heads_1G_10heads_diff_data_for_heads
images_folder: experiments/lsgan_10_heads_1G_10heads_diff_data_for_heads/images
models_folder: experiments/lsgan_10_heads_1G_10heads_diff_data_for_heads/models
Generator(
  (model): Sequential(
    (0): Linear(
      (linear): Linear(in_features=100, out_features=128, bias=True)
    )
    (1): LeakyReLU(negative_slope=0.2, inplace=True)
    (2): Linear(
      (linear): Linear(in_features=128, out_features=256, bias=True)
    )
    (3): LeakyReLU(negative_slope=0.2, inplace=True)
    (4): Linear(
      (linear): Linear(in_features=256, out_features=512, bias=True)
    )
    (5): LeakyReLU(negative_slope=0.2, inplace=True)
    (6): Linear(
      (linear): Linear(in_features=512, out_features=1024, bias=True)
    )
    (7): LeakyReLU(negative_slope=0.2, inplace=True)
    (8): Linear(
      (linear): Linear(in_features=1024, out_features=784, bias=True)
    )
    (9): Tanh()
  )
)
Discriminator(
  (share_layers): Sequential(
    (0): Linear(
      (linear): SpectralNorm(
        (module): Linear(in_features=784, out_features=512, bias=True)
      )
    )
    (1): LeakyReLU(negative_slope=0.2, inplace=True)
    (2): Linear(
      (linear): SpectralNorm(
        (module): Linear(in_features=512, out_features=256, bias=True)
      )
    )
    (3): LeakyReLU(negative_slope=0.2, inplace=True)
  )
  (head_0): Sequential(
    (0): Linear(
      (linear): SpectralNorm(
        (module): Linear(in_features=256, out_features=1, bias=True)
      )
    )
  )
  (head_1): Sequential(
    (0): Linear(
      (linear): SpectralNorm(
        (module): Linear(in_features=256, out_features=1, bias=True)
      )
    )
  )
  (head_2): Sequential(
    (0): Linear(
      (linear): SpectralNorm(
        (module): Linear(in_features=256, out_features=1, bias=True)
      )
    )
  )
  (head_3): Sequential(
    (0): Linear(
      (linear): SpectralNorm(
        (module): Linear(in_features=256, out_features=1, bias=True)
      )
    )
  )
  (head_4): Sequential(
    (0): Linear(
      (linear): SpectralNorm(
        (module): Linear(in_features=256, out_features=1, bias=True)
      )
    )
  )
  (head_5): Sequential(
    (0): Linear(
      (linear): SpectralNorm(
        (module): Linear(in_features=256, out_features=1, bias=True)
      )
    )
  )
  (head_6): Sequential(
    (0): Linear(
      (linear): SpectralNorm(
        (module): Linear(in_features=256, out_features=1, bias=True)
      )
    )
  )
  (head_7): Sequential(
    (0): Linear(
      (linear): SpectralNorm(
        (module): Linear(in_features=256, out_features=1, bias=True)
      )
    )
  )
  (head_8): Sequential(
    (0): Linear(
      (linear): SpectralNorm(
        (module): Linear(in_features=256, out_features=1, bias=True)
      )
    )
  )
  (head_9): Sequential(
    (0): Linear(
      (linear): SpectralNorm(
        (module): Linear(in_features=256, out_features=1, bias=True)
      )
    )
  )
)
start at epoch: 0
data at: data/mnist
epoch: 0
100% 938/938 [01:26<00:00, 10.82it/s]
saved g at: experiments/lsgan_10_heads_1G_10heads_diff_data_for_heads/models/generator_0.pth
saved d at: experiments/lsgan_10_heads_1G_10heads_diff_data_for_heads/models/discriminator_0.pth
saved image at: experiments/lsgan_10_heads_1G_10heads_diff_data_for_heads/images/0.png
…
