…
21-04-10 13:24:40, INFO: spec_d: 1
21-04-10 13:24:40, INFO: spec_g: 0
21-04-10 13:24:40, INFO: translation_shift: -1
21-04-10 13:24:40, INFO: use_big_head_d: 1
21-04-10 13:24:40, INFO: weights_d: 
21-04-10 13:24:40, INFO: weights_g: 
21-04-10 13:24:40, INFO: z_dim: 100
21-04-10 13:24:40, INFO: --------------------------------
21-04-10 13:24:40, INFO: exp_folder: experiments/gan1_1G_1big_head
21-04-10 13:24:40, INFO: images_folder: experiments/gan1_1G_1big_head/images
21-04-10 13:24:40, INFO: models_folder: experiments/gan1_1G_1big_head/models
21-04-10 13:24:40, INFO: Generator(
  (model): Sequential(
    (0): Linear(
      (linear): Linear(in_features=100, out_features=128, bias=True)
    )
    (1): LeakyReLU(negative_slope=0.2, inplace=True)
    (2): Linear(
      (linear): Linear(in_features=128, out_features=256, bias=True)
    )
    (3): LeakyReLU(negative_slope=0.2, inplace=True)
    (4): Linear(
      (linear): Linear(in_features=256, out_features=512, bias=True)
    )
    (5): LeakyReLU(negative_slope=0.2, inplace=True)
    (6): Linear(
      (linear): Linear(in_features=512, out_features=1024, bias=True)
    )
    (7): LeakyReLU(negative_slope=0.2, inplace=True)
    (8): Linear(
      (linear): Linear(in_features=1024, out_features=784, bias=True)
    )
    (9): Tanh()
  )
)
21-04-10 13:24:40, INFO: Discriminator(
  (share_layers): Sequential(
    (0): Linear(
      (linear): SpectralNorm(
        (module): Linear(in_features=784, out_features=512, bias=True)
      )
    )
    (1): LeakyReLU(negative_slope=0.2, inplace=True)
    (2): Linear(
      (linear): SpectralNorm(
        (module): Linear(in_features=512, out_features=256, bias=True)
      )
    )
    (3): LeakyReLU(negative_slope=0.2, inplace=True)
  )
  (head_0): Sequential(
    (0): Linear(
      (linear): SpectralNorm(
        (module): Linear(in_features=256, out_features=10, bias=True)
      )
    )
    (1): Linear(
      (linear): SpectralNorm(
        (module): Linear(in_features=10, out_features=1, bias=True)
      )
    )
    (2): Sigmoid()
  )
)
21-04-10 13:24:40, INFO: start at epoch: 0
21-04-10 13:24:50, INFO: data at: data/mnist
21-04-10 13:24:54, INFO: epoch: 0
21-04-10 13:25:12, INFO: saved g at: experiments/gan1_1G_1big_head/models/generator_0.pth
21-04-10 13:25:12, INFO: saved d at: experiments/gan1_1G_1big_head/models/discriminator_0.pth
21-04-10 13:25:12, INFO: saved image at: experiments/gan1_1G_1big_head/images/0.png
…
