…
21-05-23 09:34:03, INFO: weights_d: 
21-05-23 09:34:03, INFO: weights_g: 
21-05-23 09:34:03, INFO: z_dim: 100
21-05-23 09:34:03, INFO: --------------------------------
21-05-23 09:34:03, INFO: exp_folder: experiments/baseline/baseline_1head/baseline1head_lossgan1_augmentation1_usebighead0
21-05-23 09:34:03, INFO: images_folder: experiments/baseline/baseline_1head/baseline1head_lossgan1_augmentation1_usebighead0/images
21-05-23 09:34:03, INFO: models_folder: experiments/baseline/baseline_1head/baseline1head_lossgan1_augmentation1_usebighead0/models
21-05-23 09:34:03, INFO: Generator(
  (model): Sequential(
    (0): Linear(
      (linear): Linear(in_features=100, out_features=128, bias=True)
    )
    (1): LeakyReLU(negative_slope=0.2, inplace=True)
    (2): Linear(
      (linear): Linear(in_features=128, out_features=256, bias=True)
    )
    (3): LeakyReLU(negative_slope=0.2, inplace=True)
    (4): Linear(
      (linear): Linear(in_features=256, out_features=512, bias=True)
    )
    (5): LeakyReLU(negative_slope=0.2, inplace=True)
    (6): Linear(
      (linear): Linear(in_features=512, out_features=1024, bias=True)
    )
    (7): LeakyReLU(negative_slope=0.2, inplace=True)
    (8): Linear(
      (linear): Linear(in_features=1024, out_features=784, bias=True)
    )
    (9): Tanh()
  )
)
21-05-23 09:34:03, INFO: Discriminator(
  (shared_layers): Sequential(
    (0): Linear(
      (linear): SpectralNorm(
        (module): Linear(in_features=784, out_features=512, bias=True)
      )
    )
    (1): LeakyReLU(negative_slope=0.2, inplace=True)
    (2): Linear(
      (linear): SpectralNorm(
        (module): Linear(in_features=512, out_features=256, bias=True)
      )
    )
    (3): LeakyReLU(negative_slope=0.2, inplace=True)
  )
  (head_0): Sequential(
    (0): Linear(
      (linear): SpectralNorm(
        (module): Linear(in_features=256, out_features=1, bias=True)
      )
    )
    (1): Dropout(p=0.5, inplace=False)
    (2): Sigmoid()
  )
)
21-05-23 09:34:03, INFO: start at epoch: 0
21-05-23 09:34:14, INFO: data at: data/mnist
21-05-23 09:34:18, INFO: epoch: 0
21-05-23 09:34:37, INFO: saved g at: experiments/baseline/baseline_1head/baseline1head_lossgan1_augmentation1_usebighead0/models/generator_0.pth
21-05-23 09:34:37, INFO: saved d at: experiments/baseline/baseline_1head/baseline1head_lossgan1_augmentation1_usebighead0/models/discriminator_0.pth
…
