…
21-04-07 14:47:22, INFO: translation_shift: -1
21-04-07 14:47:22, INFO: weights_d: 
21-04-07 14:47:22, INFO: weights_g: 
21-04-07 14:47:22, INFO: z_dim: 100
21-04-07 14:47:22, INFO: --------------------------------
21-04-07 14:47:22, INFO: exp_folder: experiments/base_lsgan_loss_lsgan_spec_g_0_spec_d_0_dist_gauss
21-04-07 14:47:22, INFO: images_folder: experiments/base_lsgan_loss_lsgan_spec_g_0_spec_d_0_dist_gauss/images
21-04-07 14:47:22, INFO: models_folder: experiments/base_lsgan_loss_lsgan_spec_g_0_spec_d_0_dist_gauss/models
21-04-07 14:47:22, INFO: Generator(
  (model): Sequential(
    (0): Linear(
      (linear): Linear(in_features=100, out_features=128, bias=True)
    )
    (1): LeakyReLU(negative_slope=0.2, inplace=True)
    (2): Linear(
      (linear): Linear(in_features=128, out_features=256, bias=True)
    )
    (3): LeakyReLU(negative_slope=0.2, inplace=True)
    (4): Linear(
      (linear): Linear(in_features=256, out_features=512, bias=True)
    )
    (5): LeakyReLU(negative_slope=0.2, inplace=True)
    (6): Linear(
      (linear): Linear(in_features=512, out_features=1024, bias=True)
    )
    (7): LeakyReLU(negative_slope=0.2, inplace=True)
    (8): Linear(
      (linear): Linear(in_features=1024, out_features=784, bias=True)
    )
    (9): Tanh()
  )
)
21-04-07 14:47:22, INFO: Discriminator(
  (model): Sequential(
    (0): Linear(
      (linear): Linear(in_features=784, out_features=512, bias=True)
    )
    (1): LeakyReLU(negative_slope=0.2, inplace=True)
    (2): Linear(
      (linear): Linear(in_features=512, out_features=256, bias=True)
    )
    (3): LeakyReLU(negative_slope=0.2, inplace=True)
    (4): Linear(
      (linear): Linear(in_features=256, out_features=1, bias=True)
    )
  )
)
21-04-07 14:47:22, INFO: start at epoch: 0
21-04-07 14:47:26, INFO: data at: data/mnist
21-04-07 14:47:26, INFO: epoch: 0
21-04-07 14:47:39, INFO: saved g at: experiments/base_lsgan_loss_lsgan_spec_g_0_spec_d_0_dist_gauss/models/generator_0.pth
21-04-07 14:47:39, INFO: saved d at: experiments/base_lsgan_loss_lsgan_spec_g_0_spec_d_0_dist_gauss/models/discriminator_0.pth
…
