…
data_path: data/mnist
dist: gauss
exp_name: baseline1head_lossgan1_augmentation0_usebighead1
img_size: 28
interval: 4
loss_name: gan1
lr: 0.0002
n_cpu: 8
n_epochs: 1001
n_heads: 1
use_big_head: 1
weights_d: 
weights_g: 
z_dim: 100
--------------------------------
exp_folder: experiments/baseline/baseline_1head/baseline1head_lossgan1_augmentation0_usebighead1
images_folder: experiments/baseline/baseline_1head/baseline1head_lossgan1_augmentation0_usebighead1/images
models_folder: experiments/baseline/baseline_1head/baseline1head_lossgan1_augmentation0_usebighead1/models
Generator(
  (model): Sequential(
    (0): Linear(
      (linear): Linear(in_features=100, out_features=128, bias=True)
    )
    (1): LeakyReLU(negative_slope=0.2, inplace=True)
    (2): Linear(
      (linear): Linear(in_features=128, out_features=256, bias=True)
    )
    (3): LeakyReLU(negative_slope=0.2, inplace=True)
    (4): Linear(
      (linear): Linear(in_features=256, out_features=512, bias=True)
    )
    (5): LeakyReLU(negative_slope=0.2, inplace=True)
    (6): Linear(
      (linear): Linear(in_features=512, out_features=1024, bias=True)
    )
    (7): LeakyReLU(negative_slope=0.2, inplace=True)
    (8): Linear(
      (linear): Linear(in_features=1024, out_features=784, bias=True)
    )
    (9): Tanh()
  )
)
Discriminator(
  (shared_layers): Sequential(
    (0): Linear(
      (linear): SpectralNorm(
        (module): Linear(in_features=784, out_features=512, bias=True)
      )
    )
    (1): LeakyReLU(negative_slope=0.2, inplace=True)
    (2): Linear(
      (linear): SpectralNorm(
        (module): Linear(in_features=512, out_features=256, bias=True)
      )
    )
    (3): LeakyReLU(negative_slope=0.2, inplace=True)
  )
  (head_0): Sequential(
    (0): Linear(
      (linear): SpectralNorm(
        (module): Linear(in_features=256, out_features=10, bias=True)
      )
    )
    (1): LeakyReLU(negative_slope=0.2, inplace=True)
    (2): Linear(
      (linear): SpectralNorm(
        (module): Linear(in_features=10, out_features=1, bias=True)
      )
    )
    (3): Dropout(p=0.5, inplace=False)
    (4): Sigmoid()
  )
)
start at epoch: 0
data at: data/mnist
epoch: 0
100% 938/938 [00:19<00:00, 48.61it/s]
saved g at: experiments/baseline/baseline_1head/baseline1head_lossgan1_augmentation0_usebighead1/models/generator_0.pth
saved d at: experiments/baseline/baseline_1head/baseline1head_lossgan1_augmentation0_usebighead1/models/discriminator_0.pth
…
