…
21-04-11 05:20:02, INFO: translation_shift: -1
21-04-11 05:20:02, INFO: use_big_head_d: 0
21-04-11 05:20:02, INFO: weights_d: 
21-04-11 05:20:02, INFO: weights_g: 
21-04-11 05:20:02, INFO: z_dim: 100
21-04-11 05:20:02, INFO: --------------------------------
21-04-11 05:20:02, INFO: exp_folder: experiments/gan1_10_heads_1G_10heads_diff_data_for_heads_sep_d
21-04-11 05:20:02, INFO: images_folder: experiments/gan1_10_heads_1G_10heads_diff_data_for_heads_sep_d/images
21-04-11 05:20:02, INFO: models_folder: experiments/gan1_10_heads_1G_10heads_diff_data_for_heads_sep_d/models
21-04-11 05:20:02, INFO: Generator(
  (model): Sequential(
    (0): Linear(
      (linear): Linear(in_features=100, out_features=128, bias=True)
    )
    (1): LeakyReLU(negative_slope=0.2, inplace=True)
    (2): Linear(
      (linear): Linear(in_features=128, out_features=256, bias=True)
    )
    (3): LeakyReLU(negative_slope=0.2, inplace=True)
    (4): Linear(
      (linear): Linear(in_features=256, out_features=512, bias=True)
    )
    (5): LeakyReLU(negative_slope=0.2, inplace=True)
    (6): Linear(
      (linear): Linear(in_features=512, out_features=1024, bias=True)
    )
    (7): LeakyReLU(negative_slope=0.2, inplace=True)
    (8): Linear(
      (linear): Linear(in_features=1024, out_features=784, bias=True)
    )
    (9): Tanh()
  )
)
21-04-11 05:20:02, INFO: Discriminator(
  (share_layers): Sequential(
    (0): Linear(
      (linear): SpectralNorm(
        (module): Linear(in_features=784, out_features=512, bias=True)
      )
    )
    (1): LeakyReLU(negative_slope=0.2, inplace=True)
    (2): Linear(
      (linear): SpectralNorm(
        (module): Linear(in_features=512, out_features=256, bias=True)
      )
    )
    (3): LeakyReLU(negative_slope=0.2, inplace=True)
  )
  (head_0): Sequential(
    (0): Linear(
      (linear): SpectralNorm(
        (module): Linear(in_features=256, out_features=1, bias=True)
      )
    )
    (1): Sigmoid()
  )
  (head_1): Sequential(
    (0): Linear(
      (linear): SpectralNorm(
        (module): Linear(in_features=256, out_features=1, bias=True)
      )
    )
    (1): Sigmoid()
  )
  (head_2): Sequential(
    (0): Linear(
      (linear): SpectralNorm(
        (module): Linear(in_features=256, out_features=1, bias=True)
      )
    )
    (1): Sigmoid()
  )
  (head_3): Sequential(
    (0): Linear(
      (linear): SpectralNorm(
        (module): Linear(in_features=256, out_features=1, bias=True)
      )
    )
    (1): Sigmoid()
  )
  (head_4): Sequential(
    (0): Linear(
      (linear): SpectralNorm(
        (module): Linear(in_features=256, out_features=1, bias=True)
      )
    )
    (1): Sigmoid()
  )
  (head_5): Sequential(
    (0): Linear(
      (linear): SpectralNorm(
        (module): Linear(in_features=256, out_features=1, bias=True)
      )
    )
    (1): Sigmoid()
  )
  (head_6): Sequential(
    (0): Linear(
      (linear): SpectralNorm(
        (module): Linear(in_features=256, out_features=1, bias=True)
      )
    )
    (1): Sigmoid()
  )
  (head_7): Sequential(
    (0): Linear(
      (linear): SpectralNorm(
        (module): Linear(in_features=256, out_features=1, bias=True)
      )
    )
    (1): Sigmoid()
  )
  (head_8): Sequential(
    (0): Linear(
      (linear): SpectralNorm(
        (module): Linear(in_features=256, out_features=1, bias=True)
      )
    )
    (1): Sigmoid()
  )
  (head_9): Sequential(
    (0): Linear(
      (linear): SpectralNorm(
        (module): Linear(in_features=256, out_features=1, bias=True)
      )
    )
    (1): Sigmoid()
  )
)
21-04-11 05:20:02, INFO: start at epoch: 0
21-04-11 05:20:13, INFO: data at: data/mnist
21-04-11 05:20:16, INFO: epoch: 0
21-04-11 05:21:21, INFO: saved g at: experiments/gan1_10_heads_1G_10heads_diff_data_for_heads_sep_d/models/generator_0.pth
21-04-11 05:21:21, INFO: saved d at: experiments/gan1_10_heads_1G_10heads_diff_data_for_heads_sep_d/models/discriminator_0.pth
…
