…
21-05-24 10:33:53, INFO: 9: [1, 1, 1, 0, 1, 0, 0, 1, 0, 1, 0, 0, 1, 1, 0, 0, 0, 1, 0, 0, 1, 1, 0, 1, 0, 1, 0, 0, 0, 0, 0, 1, 1, 1, 1, 1, 1, 0, 0, 0, 1, 0, 1, 1, 1, 0, 0, 1, 0, 0, 0, 1, 0, 1, 0, 1, 1, 0, 0, 0, 1, 1, 1, 1, 1, 1, 0, 1, 0, 0, 0, 1, 0, 1, 1, 0, 1, 1, 1, 0, 0, 1, 0, 1, 0, 0, 0, 1, 0, 0, 0, 0, 0, 0, 0, 0, 0, 0, 1, 0, 0, 1, 0, 0, 0, 0, 0, 1, 0, 1, 0, 0, 0, 1, 1, 1, 0, 1, 0, 1, 1, 1, 0, 1, 1, 0, 0, 1, 1, 0, 1, 1, 1, 0, 0, 1, 0, 1, 0, 1, 1, 0, 0, 0, 0, 0, 1, 1, 1, 1, 1, 1, 0, 0, 1, 0, 0, 1, 0, 0, 0, 1, 1, 1, 1, 0, 1, 0, 1, 0, 0, 0, 1, 0, 0, 0, 1, 1, 1, 0, 1, 1, 1, 1, 0, 0, 1, 0, 0, 0, 1, 0, 0, 0, 1, 0, 1, 0, 1, 1, 0, 1, 0, 1, 0, 1, 1, 1, 1, 0, 0, 0, 0, 0, 0, 0, 1, 0, 1, 1, 0, 1, 1, 1, 1, 0, 1, 1, 1, 0, 1, 0, 1, 0, 1, 1, 0, 1, 0, 0, 1, 1, 0, 0, 1, 1, 0, 1, 1, 0, 1, 0, 1, 1, 0, 0]
21-05-24 10:33:53, INFO: Generator(
  (model): Sequential(
    (0): Linear(
      (linear): Linear(in_features=100, out_features=128, bias=True)
    )
    (1): LeakyReLU(negative_slope=0.2, inplace=True)
    (2): Linear(
      (linear): Linear(in_features=128, out_features=256, bias=True)
    )
    (3): LeakyReLU(negative_slope=0.2, inplace=True)
    (4): Linear(
      (linear): Linear(in_features=256, out_features=512, bias=True)
    )
    (5): LeakyReLU(negative_slope=0.2, inplace=True)
    (6): Linear(
      (linear): Linear(in_features=512, out_features=1024, bias=True)
    )
    (7): LeakyReLU(negative_slope=0.2, inplace=True)
    (8): Linear(
      (linear): Linear(in_features=1024, out_features=784, bias=True)
    )
    (9): Tanh()
  )
)
21-05-24 10:33:53, INFO: Discriminator(
  (shared_layers): Sequential(
    (0): Linear(
      (linear): SpectralNorm(
        (module): Linear(in_features=784, out_features=512, bias=True)
      )
    )
    (1): LeakyReLU(negative_slope=0.2, inplace=True)
    (2): Linear(
      (linear): SpectralNorm(
        (module): Linear(in_features=512, out_features=256, bias=True)
      )
    )
    (3): LeakyReLU(negative_slope=0.2, inplace=True)
  )
  (head_0): Sequential(
    (0): SpectralNorm(
      (module): MaskedLinear(in_features=256, out_features=1, bias=True)
    )
    (1): Dropout(p=0.5, inplace=False)
    (2): Sigmoid()
  )
  (head_1): Sequential(
    (0): SpectralNorm(
      (module): MaskedLinear(in_features=256, out_features=1, bias=True)
…
