…
21-04-09 08:19:59, INFO: translation_shift: -1
21-04-09 08:19:59, INFO: weights_d: 
21-04-09 08:19:59, INFO: weights_g: 
21-04-09 08:19:59, INFO: z_dim: 100
21-04-09 08:19:59, INFO: --------------------------------
21-04-09 08:19:59, INFO: exp_folder: experiments/lsgan_base_loss_lsgan_spec_g_0_spec_d_1_dist_gauss
21-04-09 08:19:59, INFO: images_folder: experiments/lsgan_base_loss_lsgan_spec_g_0_spec_d_1_dist_gauss/images
21-04-09 08:19:59, INFO: models_folder: experiments/lsgan_base_loss_lsgan_spec_g_0_spec_d_1_dist_gauss/models
21-04-09 08:19:59, INFO: Generator(
  (model): Sequential(
    (0): Linear(
      (linear): Linear(in_features=100, out_features=128, bias=True)
    )
    (1): LeakyReLU(negative_slope=0.2, inplace=True)
    (2): Linear(
      (linear): Linear(in_features=128, out_features=256, bias=True)
    )
    (3): LeakyReLU(negative_slope=0.2, inplace=True)
    (4): Linear(
      (linear): Linear(in_features=256, out_features=512, bias=True)
    )
    (5): LeakyReLU(negative_slope=0.2, inplace=True)
    (6): Linear(
      (linear): Linear(in_features=512, out_features=1024, bias=True)
    )
    (7): LeakyReLU(negative_slope=0.2, inplace=True)
    (8): Linear(
      (linear): Linear(in_features=1024, out_features=784, bias=True)
    )
    (9): Tanh()
  )
)
21-04-09 08:19:59, INFO: Discriminator(
  (share_layers): Sequential(
    (0): Linear(
      (linear): SpectralNorm(
        (module): Linear(in_features=784, out_features=512, bias=True)
      )
    )
    (1): LeakyReLU(negative_slope=0.2, inplace=True)
    (2): Linear(
      (linear): SpectralNorm(
        (module): Linear(in_features=512, out_features=256, bias=True)
      )
    )
    (3): LeakyReLU(negative_slope=0.2, inplace=True)
  )
  (head_0): Sequential(
    (0): Linear(
      (linear): SpectralNorm(
        (module): Linear(in_features=256, out_features=1, bias=True)
      )
    )
  )
)
21-04-09 08:19:59, INFO: start at epoch: 0
21-04-09 08:20:10, INFO: data at: data/mnist
21-04-09 08:20:13, INFO: epoch: 0
21-04-09 08:20:30, INFO: saved g at: experiments/lsgan_base_loss_lsgan_spec_g_0_spec_d_1_dist_gauss/models/generator_0.pth
21-04-09 08:20:30, INFO: saved d at: experiments/lsgan_base_loss_lsgan_spec_g_0_spec_d_1_dist_gauss/models/discriminator_0.pth
…
