…
21-05-09 12:18:59, INFO: n_heads: 1
21-05-09 12:18:59, INFO: use_big_head_d: 0
21-05-09 12:18:59, INFO: use_d_v2: 0
21-05-09 12:18:59, INFO: weights_d: 
21-05-09 12:18:59, INFO: weights_g: 
21-05-09 12:18:59, INFO: z_dim: 100
21-05-09 12:18:59, INFO: --------------------------------
21-05-09 12:18:59, INFO: exp_folder: experiments/augmentation/lsgan_baseline
21-05-09 12:18:59, INFO: images_folder: experiments/augmentation/lsgan_baseline/images
21-05-09 12:18:59, INFO: models_folder: experiments/augmentation/lsgan_baseline/models
21-05-09 12:18:59, INFO: Generator(
  (model): Sequential(
    (0): Linear(
      (linear): Linear(in_features=100, out_features=128, bias=True)
    )
    (1): LeakyReLU(negative_slope=0.2, inplace=True)
    (2): Linear(
      (linear): Linear(in_features=128, out_features=256, bias=True)
    )
    (3): LeakyReLU(negative_slope=0.2, inplace=True)
    (4): Linear(
      (linear): Linear(in_features=256, out_features=512, bias=True)
    )
    (5): LeakyReLU(negative_slope=0.2, inplace=True)
    (6): Linear(
      (linear): Linear(in_features=512, out_features=1024, bias=True)
    )
    (7): LeakyReLU(negative_slope=0.2, inplace=True)
    (8): Linear(
      (linear): Linear(in_features=1024, out_features=784, bias=True)
    )
    (9): Tanh()
  )
)
21-05-09 12:18:59, INFO: Discriminator(
  (share_layers): Sequential(
    (0): Linear(
      (linear): SpectralNorm(
        (module): Linear(in_features=784, out_features=512, bias=True)
      )
    )
    (1): LeakyReLU(negative_slope=0.2, inplace=True)
    (2): Linear(
      (linear): SpectralNorm(
        (module): Linear(in_features=512, out_features=256, bias=True)
      )
    )
    (3): LeakyReLU(negative_slope=0.2, inplace=True)
  )
  (head_0): Sequential(
    (0): Linear(
      (linear): SpectralNorm(
        (module): Linear(in_features=256, out_features=1, bias=True)
      )
    )
    (1): Dropout(p=0.5, inplace=False)
  )
)
21-05-09 12:18:59, INFO: start at epoch: 0
21-05-09 12:19:09, INFO: data at: data/mnist
21-05-09 12:19:11, INFO: epoch: 0
21-05-09 12:19:34, INFO: saved g at: experiments/augmentation/lsgan_baseline/models/generator_0.pth
21-05-09 12:19:34, INFO: saved d at: experiments/augmentation/lsgan_baseline/models/discriminator_0.pth
…
