…
21-05-08 11:00:43, INFO: n_cpu: 8
21-05-08 11:00:43, INFO: n_epochs: 1000
21-05-08 11:00:43, INFO: n_heads: 1
21-05-08 11:00:43, INFO: weights_d: 
21-05-08 11:00:43, INFO: weights_g: 
21-05-08 11:00:43, INFO: z_dim: 100
21-05-08 11:00:43, INFO: --------------------------------
21-05-08 11:00:43, INFO: exp_folder: experiments/sagan/augmentation/gan1_baseline
21-05-08 11:00:43, INFO: images_folder: experiments/sagan/augmentation/gan1_baseline/images
21-05-08 11:00:43, INFO: models_folder: experiments/sagan/augmentation/gan1_baseline/models
21-05-08 11:00:44, INFO: Generator(
  (l1): Sequential(
    (0): ConvTranspose2d(
      (conv_transpose2d): ConvTranspose2d(100, 128, kernel_size=(4, 4), stride=(1, 1))
    )
    (1): BatchNorm2d(128, eps=1e-05, momentum=0.1, affine=True, track_running_stats=True)
    (2): ReLU()
  )
  (l2): Sequential(
    (0): ConvTranspose2d(
      (conv_transpose2d): ConvTranspose2d(128, 64, kernel_size=(4, 4), stride=(2, 2), padding=(1, 1))
    )
    (1): BatchNorm2d(64, eps=1e-05, momentum=0.1, affine=True, track_running_stats=True)
    (2): ReLU()
  )
  (l3): Sequential(
    (0): ConvTranspose2d(
      (conv_transpose2d): ConvTranspose2d(64, 32, kernel_size=(3, 3), stride=(2, 2), padding=(1, 1))
    )
    (1): BatchNorm2d(32, eps=1e-05, momentum=0.1, affine=True, track_running_stats=True)
    (2): ReLU()
  )
  (l4): Sequential(
    (0): ConvTranspose2d(
      (conv_transpose2d): ConvTranspose2d(32, 16, kernel_size=(2, 2), stride=(2, 2), padding=(1, 1))
    )
    (1): BatchNorm2d(16, eps=1e-05, momentum=0.1, affine=True, track_running_stats=True)
    (2): ReLU()
  )
  (last): Sequential(
    (0): Conv2d(16, 1, kernel_size=(3, 3), stride=(1, 1), padding=(1, 1))
    (1): Tanh()
  )
)
21-05-08 11:00:44, INFO: Discriminator(
  (l1): Sequential(
    (0): Conv2d(
      (conv2d): SpectralNorm(
        (module): Conv2d(1, 16, kernel_size=(4, 4), stride=(2, 2), padding=(1, 1))
      )
    )
    (1): LeakyReLU(negative_slope=0.1)
  )
  (l2): Sequential(
    (0): Conv2d(
      (conv2d): SpectralNorm(
        (module): Conv2d(16, 32, kernel_size=(4, 4), stride=(2, 2), padding=(1, 1))
      )
    )
    (1): LeakyReLU(negative_slope=0.1)
  )
  (l3): Sequential(
    (0): Conv2d(
      (conv2d): SpectralNorm(
        (module): Conv2d(32, 64, kernel_size=(4, 4), stride=(2, 2), padding=(1, 1))
      )
    )
    (1): LeakyReLU(negative_slope=0.1)
  )
  (l4): Sequential(
    (0): Conv2d(
      (conv2d): SpectralNorm(
        (module): Conv2d(64, 128, kernel_size=(4, 4), stride=(2, 2), padding=(1, 1))
      )
    )
    (1): LeakyReLU(negative_slope=0.1)
  )
  (head_0): Sequential(
    (0): Conv2d(128, 1, kernel_size=(1, 1), stride=(1, 1))
    (1): Sigmoid()
  )
)
21-05-08 11:00:44, INFO: start at epoch: 0
21-05-08 11:00:54, INFO: data at: data/mnist
21-05-08 11:00:56, INFO: epoch: 0
21-05-08 11:01:27, INFO: saved g at: experiments/sagan/augmentation/gan1_baseline/models/generator_0.pth
21-05-08 11:01:27, INFO: saved d at: experiments/sagan/augmentation/gan1_baseline/models/discriminator_0.pth
…
