…
21-06-18 17:44:44, INFO: use_mask_d: 1
21-06-18 17:44:44, INFO: weights_d: 
21-06-18 17:44:44, INFO: weights_g: 
21-06-18 17:44:44, INFO: z_dim: 100
21-06-18 17:44:44, INFO: --------------------------------
21-06-18 17:44:44, INFO: exp_folder: experiments/rfgan/rfgan_lossgan1_bagging0_augmentation0_10heads_usemaskD
21-06-18 17:44:44, INFO: images_folder: experiments/rfgan/rfgan_lossgan1_bagging0_augmentation0_10heads_usemaskD/images
21-06-18 17:44:44, INFO: models_folder: experiments/rfgan/rfgan_lossgan1_bagging0_augmentation0_10heads_usemaskD/models
21-06-18 17:44:44, INFO: Generator(
  (model): Sequential(
    (0): Linear(
      (linear): Linear(in_features=100, out_features=128, bias=True)
    )
    (1): LeakyReLU(negative_slope=0.2, inplace=True)
    (2): Linear(
      (linear): Linear(in_features=128, out_features=256, bias=True)
    )
    (3): LeakyReLU(negative_slope=0.2, inplace=True)
    (4): Linear(
      (linear): Linear(in_features=256, out_features=512, bias=True)
    )
    (5): LeakyReLU(negative_slope=0.2, inplace=True)
    (6): Linear(
      (linear): Linear(in_features=512, out_features=1024, bias=True)
    )
    (7): LeakyReLU(negative_slope=0.2, inplace=True)
    (8): Linear(
      (linear): Linear(in_features=1024, out_features=784, bias=True)
    )
    (9): Tanh()
  )
)
21-06-18 17:44:44, INFO: Discriminator(
  (shared_layers): Sequential(
    (0): Linear(
      (linear): SpectralNorm(
        (module): Linear(in_features=784, out_features=512, bias=True)
      )
    )
    (1): LeakyReLU(negative_slope=0.2, inplace=True)
    (2): Linear(
      (linear): SpectralNorm(
        (module): Linear(in_features=512, out_features=256, bias=True)
      )
    )
    (3): LeakyReLU(negative_slope=0.2, inplace=True)
  )
  (head_0): Sequential(
    (0): SpectralNorm(
      (module): MaskedLinear(in_features=256, out_features=1, bias=True)
    )
    (1): Dropout(p=0.5, inplace=False)
    (2): Sigmoid()
  )
  (head_1): Sequential(
    (0): SpectralNorm(
      (module): MaskedLinear(in_features=256, out_features=1, bias=True)
…
