…
21-04-09 12:37:02, INFO: weights_g: experiments/gan1_10_heads_loss_gan1_spec_g_0_spec_d_1_dist_gauss/models/generator_58.pth
21-04-09 12:37:02, INFO: z_dim: 100
21-04-09 12:37:02, INFO: --------------------------------
21-04-09 12:37:02, INFO: exp_folder: experiments/gan1_10_heads_loss_gan1_spec_g_0_spec_d_1_dist_gauss
21-04-09 12:37:02, INFO: images_folder: experiments/gan1_10_heads_loss_gan1_spec_g_0_spec_d_1_dist_gauss/images
21-04-09 12:37:02, INFO: models_folder: experiments/gan1_10_heads_loss_gan1_spec_g_0_spec_d_1_dist_gauss/models
21-04-09 12:37:02, INFO: Generator(
  (model): Sequential(
    (0): Linear(
      (linear): Linear(in_features=100, out_features=128, bias=True)
    )
    (1): LeakyReLU(negative_slope=0.2, inplace=True)
    (2): Linear(
      (linear): Linear(in_features=128, out_features=256, bias=True)
    )
    (3): LeakyReLU(negative_slope=0.2, inplace=True)
    (4): Linear(
      (linear): Linear(in_features=256, out_features=512, bias=True)
    )
    (5): LeakyReLU(negative_slope=0.2, inplace=True)
    (6): Linear(
      (linear): Linear(in_features=512, out_features=1024, bias=True)
    )
    (7): LeakyReLU(negative_slope=0.2, inplace=True)
    (8): Linear(
      (linear): Linear(in_features=1024, out_features=784, bias=True)
    )
    (9): Tanh()
  )
)
21-04-09 12:37:02, INFO: Discriminator(
  (share_layers): Sequential(
    (0): Linear(
      (linear): SpectralNorm(
        (module): Linear(in_features=784, out_features=512, bias=True)
      )
    )
    (1): LeakyReLU(negative_slope=0.2, inplace=True)
    (2): Linear(
      (linear): SpectralNorm(
        (module): Linear(in_features=512, out_features=256, bias=True)
      )
    )
    (3): LeakyReLU(negative_slope=0.2, inplace=True)
  )
  (head_0): Sequential(
    (0): Linear(
      (linear): SpectralNorm(
        (module): Linear(in_features=256, out_features=1, bias=True)
      )
    )
    (1): Sigmoid()
  )
  (head_1): Sequential(
    (0): Linear(
      (linear): SpectralNorm(
        (module): Linear(in_features=256, out_features=1, bias=True)
      )
    )
    (1): Sigmoid()
  )
  (head_2): Sequential(
    (0): Linear(
      (linear): SpectralNorm(
        (module): Linear(in_features=256, out_features=1, bias=True)
      )
    )
    (1): Sigmoid()
  )
  (head_3): Sequential(
    (0): Linear(
      (linear): SpectralNorm(
        (module): Linear(in_features=256, out_features=1, bias=True)
      )
    )
    (1): Sigmoid()
  )
  (head_4): Sequential(
    (0): Linear(
      (linear): SpectralNorm(
        (module): Linear(in_features=256, out_features=1, bias=True)
      )
    )
    (1): Sigmoid()
  )
  (head_5): Sequential(
    (0): Linear(
      (linear): SpectralNorm(
        (module): Linear(in_features=256, out_features=1, bias=True)
      )
    )
    (1): Sigmoid()
  )
  (head_6): Sequential(
    (0): Linear(
      (linear): SpectralNorm(
        (module): Linear(in_features=256, out_features=1, bias=True)
      )
    )
    (1): Sigmoid()
  )
  (head_7): Sequential(
    (0): Linear(
      (linear): SpectralNorm(
        (module): Linear(in_features=256, out_features=1, bias=True)
      )
    )
    (1): Sigmoid()
  )
  (head_8): Sequential(
    (0): Linear(
      (linear): SpectralNorm(
        (module): Linear(in_features=256, out_features=1, bias=True)
      )
    )
    (1): Sigmoid()
  )
  (head_9): Sequential(
    (0): Linear(
      (linear): SpectralNorm(
        (module): Linear(in_features=256, out_features=1, bias=True)
      )
    )
    (1): Sigmoid()
  )
)
21-04-09 12:37:14, INFO: loaded g at: experiments/gan1_10_heads_loss_gan1_spec_g_0_spec_d_1_dist_gauss/models/generator_58.pth
21-04-09 12:37:15, INFO: loaded d at: experiments/gan1_10_heads_loss_gan1_spec_g_0_spec_d_1_dist_gauss/models/discriminator_58.pth
21-04-09 12:37:15, INFO: start at epoch: 59
21-04-09 12:37:15, INFO: data at: data/mnist
…
