…
21-04-12 02:34:20, INFO: translation_shift: -1
21-04-12 02:34:20, INFO: use_big_head_d: 1
21-04-12 02:34:20, INFO: use_dropout: 1
21-04-12 02:34:20, INFO: weights_d: 
21-04-12 02:34:20, INFO: weights_g: 
21-04-12 02:34:20, INFO: z_dim: 100
21-04-12 02:34:20, INFO: --------------------------------
21-04-12 02:34:20, INFO: exp_folder: experiments/run_gan1_1G_1big_head_dropout_for_d
21-04-12 02:34:20, INFO: images_folder: experiments/run_gan1_1G_1big_head_dropout_for_d/images
21-04-12 02:34:20, INFO: models_folder: experiments/run_gan1_1G_1big_head_dropout_for_d/models
21-04-12 02:34:20, INFO: Generator(
  (model): Sequential(
    (0): Linear(
      (linear): Linear(in_features=100, out_features=128, bias=True)
    )
    (1): LeakyReLU(negative_slope=0.2, inplace=True)
    (2): Linear(
      (linear): Linear(in_features=128, out_features=256, bias=True)
    )
    (3): LeakyReLU(negative_slope=0.2, inplace=True)
    (4): Linear(
      (linear): Linear(in_features=256, out_features=512, bias=True)
    )
    (5): LeakyReLU(negative_slope=0.2, inplace=True)
    (6): Linear(
      (linear): Linear(in_features=512, out_features=1024, bias=True)
    )
    (7): LeakyReLU(negative_slope=0.2, inplace=True)
    (8): Linear(
      (linear): Linear(in_features=1024, out_features=784, bias=True)
    )
    (9): Tanh()
  )
)
21-04-12 02:34:20, INFO: Discriminator(
  (share_layers): Sequential(
    (0): Linear(
      (linear): SpectralNorm(
        (module): Linear(in_features=784, out_features=512, bias=True)
      )
    )
    (1): LeakyReLU(negative_slope=0.2, inplace=True)
    (2): Linear(
      (linear): SpectralNorm(
        (module): Linear(in_features=512, out_features=256, bias=True)
      )
    )
    (3): LeakyReLU(negative_slope=0.2, inplace=True)
  )
  (head_0): Sequential(
    (0): Linear(
      (linear): SpectralNorm(
        (module): Linear(in_features=256, out_features=10, bias=True)
      )
    )
    (1): Dropout(p=0.5, inplace=False)
    (2): Linear(
      (linear): SpectralNorm(
        (module): Linear(in_features=10, out_features=1, bias=True)
      )
    )
    (3): Sigmoid()
  )
)
21-04-12 02:34:20, INFO: start at epoch: 0
21-04-12 02:34:30, INFO: data at: data/mnist
21-04-12 02:34:34, INFO: epoch: 0
21-04-12 02:34:52, INFO: saved g at: experiments/run_gan1_1G_1big_head_dropout_for_d/models/generator_0.pth
21-04-12 02:34:52, INFO: saved d at: experiments/run_gan1_1G_1big_head_dropout_for_d/models/discriminator_0.pth
…
