…
21-05-08 16:50:27, INFO: use_d_v2: 1
21-05-08 16:50:27, INFO: weights_d: 
21-05-08 16:50:27, INFO: weights_g: 
21-05-08 16:50:27, INFO: z_dim: 100
21-05-08 16:50:27, INFO: --------------------------------
21-05-08 16:50:27, INFO: exp_folder: experiments/augmentation/gan1_10_heads_1G_10heads_diff_data_for_heads_DV2
21-05-08 16:50:27, INFO: images_folder: experiments/augmentation/gan1_10_heads_1G_10heads_diff_data_for_heads_DV2/images
21-05-08 16:50:27, INFO: models_folder: experiments/augmentation/gan1_10_heads_1G_10heads_diff_data_for_heads_DV2/models
21-05-08 16:50:27, INFO: Generator(
  (model): Sequential(
    (0): Linear(
      (linear): Linear(in_features=100, out_features=128, bias=True)
    )
    (1): LeakyReLU(negative_slope=0.2, inplace=True)
    (2): Linear(
      (linear): Linear(in_features=128, out_features=256, bias=True)
    )
    (3): LeakyReLU(negative_slope=0.2, inplace=True)
    (4): Linear(
      (linear): Linear(in_features=256, out_features=512, bias=True)
    )
    (5): LeakyReLU(negative_slope=0.2, inplace=True)
    (6): Linear(
      (linear): Linear(in_features=512, out_features=1024, bias=True)
    )
    (7): LeakyReLU(negative_slope=0.2, inplace=True)
    (8): Linear(
      (linear): Linear(in_features=1024, out_features=784, bias=True)
    )
    (9): Tanh()
  )
)
21-05-08 16:50:27, INFO: Discriminator(
  (share_layers): Sequential(
    (0): Linear(
      (linear): SpectralNorm(
        (module): MaskedLinear(in_features=784, out_features=512, bias=True)
      )
    )
    (1): LeakyReLU(negative_slope=0.2, inplace=True)
    (2): Linear(
      (linear): SpectralNorm(
        (module): MaskedLinear(in_features=512, out_features=256, bias=True)
      )
    )
    (3): LeakyReLU(negative_slope=0.2, inplace=True)
  )
  (head_0): Sequential(
    (0): Linear(
      (linear): SpectralNorm(
        (module): MaskedLinear(in_features=256, out_features=1, bias=True)
      )
    )
    (1): Dropout(p=0.5, inplace=False)
    (2): Sigmoid()
  )
  (head_1): Sequential(
    (0): Linear(
      (linear): SpectralNorm(
        (module): MaskedLinear(in_features=256, out_features=1, bias=True)
      )
    )
    (1): Dropout(p=0.5, inplace=False)
    (2): Sigmoid()
  )
  (head_2): Sequential(
    (0): Linear(
      (linear): SpectralNorm(
        (module): MaskedLinear(in_features=256, out_features=1, bias=True)
      )
    )
    (1): Dropout(p=0.5, inplace=False)
    (2): Sigmoid()
  )
  (head_3): Sequential(
    (0): Linear(
      (linear): SpectralNorm(
        (module): MaskedLinear(in_features=256, out_features=1, bias=True)
      )
    )
    (1): Dropout(p=0.5, inplace=False)
    (2): Sigmoid()
  )
  (head_4): Sequential(
    (0): Linear(
      (linear): SpectralNorm(
        (module): MaskedLinear(in_features=256, out_features=1, bias=True)
      )
    )
    (1): Dropout(p=0.5, inplace=False)
    (2): Sigmoid()
  )
  (head_5): Sequential(
    (0): Linear(
      (linear): SpectralNorm(
        (module): MaskedLinear(in_features=256, out_features=1, bias=True)
      )
    )
    (1): Dropout(p=0.5, inplace=False)
    (2): Sigmoid()
  )
  (head_6): Sequential(
    (0): Linear(
      (linear): SpectralNorm(
        (module): MaskedLinear(in_features=256, out_features=1, bias=True)
      )
    )
    (1): Dropout(p=0.5, inplace=False)
    (2): Sigmoid()
  )
  (head_7): Sequential(
    (0): Linear(
      (linear): SpectralNorm(
        (module): MaskedLinear(in_features=256, out_features=1, bias=True)
      )
    )
    (1): Dropout(p=0.5, inplace=False)
    (2): Sigmoid()
  )
  (head_8): Sequential(
    (0): Linear(
      (linear): SpectralNorm(
        (module): MaskedLinear(in_features=256, out_features=1, bias=True)
      )
    )
    (1): Dropout(p=0.5, inplace=False)
    (2): Sigmoid()
  )
  (head_9): Sequential(
    (0): Linear(
      (linear): SpectralNorm(
        (module): MaskedLinear(in_features=256, out_features=1, bias=True)
      )
    )
    (1): Dropout(p=0.5, inplace=False)
    (2): Sigmoid()
  )
)
21-05-08 16:50:27, INFO: start at epoch: 0
21-05-08 16:50:37, INFO: data at: data/mnist
21-05-08 16:50:41, INFO: epoch: 0
21-05-08 16:53:16, INFO: saved g at: experiments/augmentation/gan1_10_heads_1G_10heads_diff_data_for_heads_DV2/models/generator_0.pth
…
